model.tflite (tflite, 87236 bytes, 6 tensors)

arith.constant3 f4 [1, 32]
000000 ab d6 c6 3d e8 f5 2d be 9c 73 26 be d8 42 f1 be
       0.097089134 -0.16988337 -0.16255039 -0.4712131
000010 73 88 91 3e 0d 1d 54 3e 68 df ad be df 47 2d be
       0.28424415 0.20714207 -0.33959508 -0.16921948
000020 c2 03 24 3e 1a 08 12 3e d6 81 06 3e a6 33 a1 3e
       0.16017058 0.14260903 0.13135466 0.31484717
000030 65 55 a7 3e db 59 a3 be 22 bd 94 3e da c4 af 3e
       0.32682338 -0.31904492 0.29050547 0.34329873
000040 c9 41 b9 3e 46 75 f1 3e ba fe a1 be 04 7a 8f be
       0.36183003 0.47159785 -0.31639653 -0.28022778
000050 00 36 30 be 20 1b ef be b6 a6 bb be ff 72 94 3e
       -0.172081 -0.46700382 -0.36650628 0.28993985
000060 5b 68 6f 3e 79 ee 02 bf ca 52 a4 be 8b 70 1b 3e
       0.23379652 -0.5114513 -0.32094413 0.1517965
000070 99 e7 8a 3e 0c 4b 5c be df ec e2 be 16 e3 94 3e
       0.2712982 -0.21513003 -0.44321343 0.29079503

arith.constant4 f4 [32, 64]
000000 e4 d1 c0 bd 47 65 0f 3e 30 4a c6 3d ef f9 ca 3c
       -0.094150335 0.14003478 0.09682119 0.02477738
000010 ad c5 84 3e 52 4d f0 3d 33 ac 5f 3d af 0e e0 bd
       0.25932065 0.11733498 0.05460758 -0.10940301
000020 4a 6b 6b 3e 59 4b 6b be f8 3a aa be d8 01 fc bd
       0.22990146 -0.22977962 -0.33248115 -0.12305039
000030 b2 c5 f7 3c d5 9e 60 bd e8 64 40 3d 31 91 27 3e
       0.030245636 -0.054838974 0.04697123 0.1636398
000040 d6 bb 3e bc e0 cb 8d 3e 41 20 ee bb dc 99 5f 3e
       -0.011641463 0.27694607 -0.0072670286 0.21836036
000050 9a 9f 6b be 7e 35 62 3e 51 5c d2 3d 4c 66 20 3e
       -0.23010102 0.22090718 0.10271514 0.15664023
000060 71 05 ae 3d 98 a2 74 be 97 c6 6c be 50 66 8c be
       0.084971316 -0.2389015 -0.23122631 -0.27421808
000070 81 62 ae 3c 15 f3 e1 bc 38 7b 37 be a9 02 e9 3d
       0.021287205 -0.02758173 -0.17918098 0.113774605
000080 56 50 98 3e 06 44 31 3b 82 f9 a8 bd de bc 85 bc
       0.2974879 0.0027048602 -0.08250715 -0.01632541
000090 28 75 1f be d7 13 75 3e 08 a9 04 3e b8 ac 0d bd
       -0.15572035 0.2393335 0.12955105 -0.034588546
0000a0 90 eb cf 38 db 66 7d be dc 83 69 be 56 99 9c be
       9.914406e-05 -0.24746267 -0.22804207 -0.30585736
0000b0 83 89 3e 3c 1d 0c 62 be 33 a9 b1 bd 10 f2 c9 3d
       0.011629465 -0.22074933 -0.0867485 0.09860623
0000c0 2e b5 98 bd 2c 9a 2b 3e 2f 8e 6b 3e 6a 3a 8d 3e
       -0.07456432 0.1675803 0.23003457 0.2758363
0000d0 1d 55 7e be f2 b8 45 be 4c 30 26 3e 77 be 3f 3e
       -0.24837156 -0.19308832 0.16229361 0.18725
0000e0 a4 92 dc bb 28 fc 04 3e aa 93 38 be 2d 28 68 bd
       -0.006731348 0.12986815 -0.1802508 -0.05667894
0000f0 67 50 02 3e 1a 45 92 3e 27 83 e9 3d 32 a8 e2 bd
       0.12725984 0.28568345 0.114019684 -0.11067237
000100 94 d3 19 3c 33 41 81 3d 3b 0c 5c bb a8 69 bf bc
       0.009388823 0.06311264 -0.0033576626 -0.02336581
000110 32 7b df 3c 64 e2 80 be 76 f8 ae 3c b4 16 8a be
       0.027280424 -0.25172722 0.02135871 -0.26970446
000120 d8 96 33 3c 08 70 9f bd 77 f4 53 3e c2 0f c6 3e
       0.010961257 -0.0778504 0.20698725 0.38683897
000130 59 0c 5b be 9e 08 5c bc b7 62 16 be 9c 09 9a be
       -0.21391429 -0.013429789 -0.14686094 -0.30085456
000140 35 b0 4e bd c8 1f 4b be 52 c6 02 3e f9 4b f6 3d
       -0.050461013 -0.19836342 0.12770966 0.120262094
000150 8d 8f c0 3e 87 70 bf be 19 a2 03 be 62 e4 08 3c
       0.3760952 -0.3739054 -0.12854804 0.008355232
000160 65 fc 8a 3e e7 c2 b8 3d 50 79 24 be ab f9 8b 3d
       0.27145687 0.0902155 -0.16061902 0.0683473
000170 6f b4 14 3e 12 a0 0e 3c fe f7 62 3d c7 0d ec bd
       0.14521955 0.008705156 0.055412285 -0.11526065
000180 d7 dc 14 bd a4 ba 42 3d 85 4f 10 be 76 5b 93 be
       -0.03634342 0.047541276 -0.14092834 -0.28780717
000190 74 e2 92 3e 1a c7 e9 bd 16 ff 18 be d4 a5 7d 3d
       0.28688395 -0.11414929 -0.14941058 0.061925724
0001a0 82 a3 5e 3e 1d 12 6e 3a b6 6d 24 3e cf f0 0f 3e
       0.21742061 0.00090816786 0.16057476 0.14056705
0001b0 af f0 b1 3c 73 e1 bc bc 05 3a 85 be 94 86 99 3d
       0.021721212 -0.023056721 -0.26020828 0.07496372
0001c0 a7 e4 d4 bd c6 10 9f be f4 ae cf 3d 97 08 c0 be
       -0.103951745 -0.31067485 0.101407915 -0.37506554
0001d0 f1 f1 74 3e c5 85 4e bc 8d e6 ec 3d 15 b6 10 be
       0.23920418 -0.012605135 0.115674116 -0.14131959
0001e0 cd 00 fa bd fc e0 5e 3e 2e 9e 69 be 76 58 83 3e
       -0.12207184 0.21765512 -0.22814247 0.25653428
0001f0 62 00 39 be 35 22 cf bc a8 4a 16 be da 50 fb bc
       -0.18066552 -0.025284866 -0.14676917 -0.030678201
000200 29 70 93 be f7 fe 3c bc ae 9b 46 be c1 15 52 be
       -0.2879651 -0.011535398 -0.19395325 -0.20516111
000210 3e 9d a7 be a1 f5 09 be 3d ce 75 bd 40 60 5b bd
       -0.32737154 -0.13472606 -0.060011137 -0.053558588
000220 1f ba 40 bc 6d 32 4b 3e 89 54 f3 3d da 8e fb 3d
       -0.011763125 0.19843455 0.11881358 0.12283106
000230 78 2e a4 be c0 53 05 be e6 20 44 3e de 87 e0 bd
       -0.32066703 -0.1302023 0.19153175 -0.109634146
000240 e6 9c d6 bd 81 4f 53 be 5c 9f 78 be bf 7d d6 bd
       -0.10479145 -0.20635797 -0.24279541 -0.10473203
000250 2a 7c a5 3e 1d e5 b7 be 68 74 06 3e ad 29 7f be
       0.32321292 -0.35916987 0.13130343 -0.24918242
000260 24 11 48 bd 8c ff 02 be 3c 13 60 3e b3 97 3a 3e
       -0.04884447 -0.12792796 0.21882337 0.18221931
000270 65 31 95 3e 11 60 3c 3e c3 73 cc 3d 81 c4 24 3d
       0.29139248 0.18396021 0.09983017 0.040226463
000280 56 9c a9 be 3d 55 7a bd d7 2e 1a be 99 ba b4 bc
       -0.33127087 -0.061116446 -0.1505693 -0.022061633
000290 0d 3f db 3d 8d ab 5a be f4 ef eb bd 04 a5 c6 be
       0.10705385 -0.21354504 -0.11520377 -0.38797772
0002a0 9f bb 2f be 39 17 35 3e cb 0c a0 3e d6 08 c8 3e
       -0.17161416 0.1768464 0.3125976 0.3906924
0002b0 96 7d fa bb 24 77 2b 3e 38 2c b5 bc a3 0a e4 bd
       -0.0076443655 0.16744667 -0.022115812 -0.11134841
0002c0 77 60 eb be 6b 8e 90 be 98 56 d9 3d b0 cc b3 be
       -0.45972034 -0.28233656 0.106122196 -0.35117102
0002d0 e0 75 bc bc c7 cb 09 be f2 69 08 3b 34 15 23 be
       -0.023005426 -0.13456641 0.0020815101 -0.15926057
0002e0 85 71 98 3e c2 62 e4 3d 20 fe ac bd 0b 8d 7e 3c
       0.2977411 0.11151649 -0.08446908 0.015536557
0002f0 1f 14 49 be 69 dd 71 be b9 90 e6 bd 51 0f d3 be
       -0.19636582 -0.23619618 -0.112580724 -0.41222623
000300 e9 d8 6e be ff 6f 48 bb 50 3b f5 bb ab 43 31 3e
       -0.23324932 -0.0030584333 -0.0074838772 0.1731097
000310 df ad 71 be 54 ba ef bd 5d fe ee 3d 68 55 4b be
       -0.23601483 -0.11705461 0.1166961 -0.19856799
000320 1c 16 fb bc 69 0a e1 3d c9 13 51 3c 87 8c 93 3e
       -0.030650191 0.10988314 0.012761065 0.2881815
000330 f0 74 c9 bd d2 25 91 be 96 91 88 be 26 70 5a 3e
       -0.09836757 -0.28349167 -0.26673573 0.21331844
000340 c6 cd b2 be ce f0 0a be 66 d8 07 3e fd 4f 85 3e
       -0.34922618 -0.13568422 0.13266143 0.2603759
000350 f8 49 89 3e 7c 35 a0 be 10 00 e0 b8 82 df 05 3e
       0.26814246 -0.31290805 -0.00010681164 0.13073543
000360 81 ed 94 3e 3e 88 56 be ae 95 0c 3e 8e ae df 3d
       0.2908745 -0.2095041 0.13728973 0.109219655
000370 f2 12 72 3d 70 24 ad 3d 2a 8b 90 3c 46 ab b4 3c
       0.0591001 0.084542155 0.017644484 0.022054326
000380 b0 ee 3a be 59 c5 73 be f1 20 33 be e5 5b 5d 3d
       -0.18255115 -0.23805751 -0.17493035 0.054042716
000390 ef ec 87 bd 6c 90 42 be df 5d 81 bd 7b 4d 48 3d
       -0.06636988 -0.19000405 -0.063167326 0.048902016
0003a0 fd 8b 11 be 86 09 d3 3d d6 00 a0 bd ec 3c 5d 3e
       -0.14213558 0.10304551 -0.078126594 0.21605271
0003b0 21 b2 fa bd da 49 78 3e d2 83 8c be 1b cd 90 bd
       -0.12241007 0.24246922 -0.2744432 -0.07070371
0003c0 0b aa 8e be f8 50 22 be 93 60 27 3b 5e d6 3f bc
       -0.27864107 -0.158512 0.002553974 -0.011708824
0003d0 7f 05 6f ba 0e 4c 63 3e aa c9 0a 3e 80 36 3d bd
       -0.00091179454 0.22196981 0.13553491 -0.046194553
0003e0 fb e6 5f 3e 97 4a 86 bd 45 e4 80 be 0c 44 44 bd
       0.21865456 -0.06557196 -0.25174156 -0.047916457
0003f0 f1 40 74 3d e3 2f 74 be 0c 95 0a 3e 60 17 35 be
       0.059632245 -0.23846392 0.1353342 -0.17684698

arith.constant5 f4 [32]
000000 d4 0a ec 3d b1 c5 32 bc 58 75 8a bc ce 69 da bb
       0.11525503 -0.010911391 -0.016901657 -0.006665445
000010 f1 fa 9e 3d 3b 1c dd 3d 3a d7 77 bc e2 6c 78 ba
       0.07762707 0.107964 -0.015126998 -0.0009476674
000020 57 e9 80 bb f4 b4 e6 3d 74 26 b0 3d af 72 3a 3c
       -0.0039340663 0.11264983 0.08601084 0.011379882
000030 35 a6 42 3d e6 c4 10 3d 3c 20 83 3d 73 73 2b 3d
       0.04752179 0.035344027 0.064026326 0.041858148
000040 46 81 92 3d f4 2f ba 3d 3c 84 1b bd ff 56 61 3c
       0.07153563 0.090911776 -0.037967905 0.013753652
000050 6c 07 47 3c 9e 5d f0 bc 7a d0 7f bc 9d e0 a0 3d
       0.012147766 -0.029341515 -0.0156136695 0.078553416
000060 94 c0 28 3d 83 d3 36 ba 72 a5 20 bd 3f a3 08 3d
       0.04119928 -0.0006974267 -0.03922028 0.03335881
000070 2d f8 5c 3d d3 f6 c0 3c e5 8c 82 bd 2b d6 dd 3d
       0.053947616 0.023555195 -0.0637453 0.10831865

arith.constant19 f4 [256, 1]
000000 9d 67 ac 3d c3 99 ed 3d 4c 7d 74 be 65 90 fb bd
       0.084182 0.11601593 -0.23875922 -0.122834004
000010 47 97 6b 3c a3 69 9f 3d 1b 24 3a 3e 6c c0 31 be
       0.014379329 0.077838205 0.18177836 -0.1735856
000020 86 54 e4 3d 6d c1 fd bd 53 25 28 3c f1 3d 1b 3d
       0.11148934 -0.12390409 0.010262805 0.03790087
000030 a4 5c a1 be 15 3a cc bd 5a 9b 8f be 7a 44 66 bd
       -0.31515992 -0.09972016 -0.2804821 -0.056217648
000040 24 c1 a0 3d b5 56 98 3d 2d ed ef bc a6 28 52 be
       0.07849339 0.07438413 -0.029287899 -0.20523319
000050 f8 06 f0 3a 79 ed 57 3e ba a4 47 be d7 b6 38 be
       0.0018312624 0.21086682 -0.19496432 -0.18038498
000060 87 0e c5 bd cb cd 1c 3e 1a f3 74 be 07 64 27 3e
       -0.096219115 0.15312879 -0.23920861 0.16346751
000070 16 85 84 bd f8 0b 6a bd 7d c4 8d 3d eb c6 84 3e
       -0.06470697 -0.05714032 0.06922243 0.25933012
000080 0a f1 0c 3e 67 d0 95 be 37 41 53 3e cc c3 08 3e
       0.13763824 -0.2926056 0.20630346 0.1335594
000090 6e 02 37 3e d9 8b 3d 3e f5 b4 e4 3d f3 be 6a 3e
       0.1787202 0.18510379 0.11167327 0.22924404
0000a0 e3 11 1c 3e a6 5a 04 be a9 33 87 3e f4 55 65 3e
       0.15241198 -0.12925205 0.264066 0.2239607
0000b0 b0 be 52 be 8f cf 39 3d 5c 6c 5f 3e d1 37 4d be
       -0.20580554 0.04536396 0.2181868 -0.20040824
0000c0 15 ea 0e 3e b4 5c 67 be 9a f9 44 3a 3c 5e 38 3e
       0.13956483 -0.22593957 0.0007514 0.18004698
0000d0 92 9c 68 3e 7f 82 17 3e 79 91 40 be 15 9b 50 3d
       0.22715977 0.14795874 -0.18805493 0.050929148
0000e0 e2 3a c6 3d 41 cf ad bd ce a8 92 be 95 a7 80 be
       0.096792 -0.08486796 -0.28644413 -0.25127855
0000f0 a9 21 22 3c 16 45 4f 3e db 24 0a 3e f7 e8 87 3e
       0.0098957205 0.20241198 0.13490622 0.26544926
000100 08 71 80 bc 88 bc 05 be 86 12 55 3d 03 f3 23 be
       -0.015678898 -0.130602 0.05201962 -0.1601067
000110 cc 45 15 bd 0b 7c c7 3d 18 fe 02 be 2f 21 1a bc
       -0.036443517 0.09740456 -0.12792242 -0.009407326
000120 c9 82 5d 3d c0 a4 4a be 2d 07 cb 3c df 7c 92 bd
       0.054079805 -0.1978941 0.024783695 -0.071527235
000130 14 5e 56 be 19 f2 87 3d 91 50 27 be e6 77 56 bd
       -0.20934325 0.06637973 -0.16339327 -0.052360438
000140 e0 81 c1 3b 36 77 a4 bd 1f aa 78 be b1 c3 52 be
       0.005905375 -0.0803055 -0.24283646 -0.20582463
000150 70 a9 bf bd 9f 9f 41 3e e4 b3 ff bd 44 e4 74 3d
       -0.093584895 0.18908547 -0.12485483 0.059788004
000160 a9 d6 e7 3c aa 8a 07 3d d4 8f 90 bd 76 9f 5c 3e
       0.0283006 0.033091225 -0.07058683 0.21545205
000170 9b 93 81 bd 2d c6 a4 bd 59 60 0c be a2 09 e0 3c
       -0.06326982 -0.080456115 -0.13708629 0.027348343
000180 29 5a 22 bd 32 d3 7f be 2e ba a1 3d 67 04 ef 3c
       -0.039636765 -0.24982908 0.07896839 0.029176904
000190 0e 32 72 3d 1f fc 36 3e 31 9d 3a 3d 78 8d 02 3e
       0.059129767 0.17869614 0.045560066 0.12749279
0001a0 d5 88 34 3e e8 cd 83 be ee 8b 49 3c 3f 15 bf 3d
       0.17630322 -0.25743032 0.012301428 0.09330224
0001b0 d6 07 32 be 79 ad f5 bc 76 74 e0 3c 52 5c 39 be
       -0.17385802 -0.029989945 0.027399283 -0.18101624
0001c0 8c a5 e9 bd 49 f9 ce bd 1a b0 ca bd d0 99 37 bb
       -0.11408529 -0.10106141 -0.0989687 -0.0028015263
0001d0 a2 7f a6 3d 5a 70 e9 bd d5 6e 18 be bf d3 25 3e
       0.08129813 -0.113983825 -0.14886029 0.16194056
0001e0 4d ea 1d bd e9 b4 15 be 90 a2 5e be ac 13 75 bd
       -0.038553525 -0.14619793 -0.217417 -0.059833214
0001f0 15 f9 af bd ce 0e 47 3e dc 69 74 3d 9c d1 5f bd
       -0.085924305 0.19439241 0.059671268 -0.05464326
000200 9c e2 0d be e8 62 ef 3d dd 27 31 be aa 09 41 3b
       -0.13855976 0.11688787 -0.17300363 0.0029455223
000210 40 b9 c0 bd 16 12 25 be 9d d1 47 be 66 12 0f be
       -0.09410334 -0.1612018 -0.19513555 -0.13971862
000220 80 61 04 be f2 62 db bd 39 62 17 3e 4d d1 2e 3e
       -0.12927818 -0.10712232 0.14783563 0.1707203
000230 e9 0d e2 bd 41 ec 8a bd 27 36 87 bd 60 16 25 be
       -0.110378094 -0.06783343 -0.066021256 -0.16121817
000240 f5 6f c8 bd ca e5 65 be 92 56 a6 bd 86 36 82 bc
       -0.09786979 -0.22450939 -0.08121981 -0.01589514
000250 90 a4 30 3e f7 cd 0f be 1c 75 ba 3d c2 75 42 be
       0.17250276 -0.14043413 0.09104368 -0.18990234
000260 7e 36 14 3d e1 51 1d be d7 2f 89 bc 2b 74 2b 3e
       0.03618478 -0.15363266 -0.016746445 0.16743533
000270 7b 1e c4 3d ab c2 2f 3e d7 64 32 3e 41 b5 05 be
       0.09576126 0.17164104 0.1742128 -0.13057424
000280 2b d5 31 be d9 6e a2 3c 0c e4 a3 bc 4c d2 c5 bd
       -0.17366473 0.019828247 -0.020006202 -0.096592516
000290 11 9f 18 3e 40 7e 13 be 91 cf 51 be 5e 8c 2f be
       0.14904429 -0.1440363 -0.20489337 -0.1714339
0002a0 31 18 65 3d 68 7c 15 3e 21 a3 5e 3e 79 d5 35 3e
       0.055931274 0.14598238 0.21741916 0.17757215
0002b0 bf e6 c1 3d cb 49 36 3e 5e ca 23 be d7 b3 af 3d
       0.094678394 0.17801587 -0.15995166 0.085792236
0002c0 e9 ec 3c be eb 3a b7 bd 3a 23 5f bd f9 d1 30 be
       -0.18449749 -0.089467846 -0.054476954 -0.17267598
0002d0 3b 67 53 3e 2a dc 8c 3d 51 d8 ee 3d c9 cf 67 bd
       0.20644848 0.068779305 0.11662353 -0.056594644
0002e0 59 a0 26 3e 3e 7b 40 3e 56 71 db bd 57 4e 4f 3d
       0.16272105 0.18797013 -0.107149765 0.05061182
0002f0 88 24 bd bd 5a fd 26 be 0f 8e e8 bd c6 8a 4e be
       -0.092354834 -0.16307583 -0.113552205 -0.20170125
000300 e3 60 8e 3d ac e5 37 3e ea 93 7d bd d2 e7 28 be
       0.069520734 0.17958707 -0.06190864 -0.16494682
000310 99 b5 f9 3c c8 45 ac 3d bc 91 94 3e f5 3a 0c bd
       0.0304821 0.08411747 0.29017437 -0.034235913
000320 8c 85 54 3e c5 5d 4c be 9a 0e ce 3d 65 97 27 3d
       0.20754069 -0.19957645 0.10061379 0.040915865
000330 47 85 a2 be 87 ae b0 3c 24 f8 9e be 91 6e 89 3d
       -0.31742308 0.021567596 -0.3104869 0.06710542
000340 cd d2 af 3d 7d b0 ba 3d 65 1e c5 bd ec 11 2d be
       0.08585129 0.09115694 -0.09624938 -0.16901368
000350 1f 0f 9a 3e d1 14 61 3e 50 24 98 bc 3e 0f ca bc
       0.3008966 0.21980597 -0.018572003 -0.024665471
000360 ef c8 d1 bd 97 dd 50 3e 92 a4 89 bd 8e bb 6b 3c
       -0.10243403 0.2039703 -0.067208424 0.014387978
000370 fc a5 10 be 8f 0b 14 3e fc 86 65 3e 47 3c 4b 3e
       -0.14125818 0.14457534 0.22414774 0.19847213
000380 cf 4e 6f 3e a2 e8 b9 bd bb 1d 00 3e cf 3a 9b bd
       0.23369907 -0.09077574 0.12511341 -0.07579576
000390 a8 10 82 3e ee 10 02 3e e0 c5 29 3e 35 a9 53 3e
       0.25403333 0.1270177 0.1657939 0.20670016
0003a0 ef 1a d7 ba e5 07 60 be 64 13 40 3e 08 fc 02 3e
       -0.0016411225 -0.21878012 0.18757397 0.12791455
0003b0 77 76 f2 bd 19 35 f6 3c 77 04 84 3c 98 fa ba bd
       -0.118390016 0.030054616 0.01611541 -0.09129828
0003c0 8c 34 f6 3d b6 40 9a be 90 b6 58 be e7 6b 62 3d
       0.12021741 -0.30127496 -0.21163392 0.055278685
0003d0 d5 92 1e 3e 9f 93 02 3e de 2e a6 bd f8 9e c1 3d
       0.154857 0.12751625 -0.08114408 0.09454149
0003e0 f4 ac b1 3d 6a c6 1d 3e d3 04 96 be e0 51 05 be
       0.08675566 0.1540772 -0.29300556 -0.13019514
0003f0 71 cd 1a be 99 6f bd 3d e0 a7 06 be 4e 1a 74 3d
       -0.15117432 0.09249801 -0.13149977 0.0595954

arith.constant20 f4 [256, 64]
000000 95 2c f7 bd 20 8f 18 be df 37 25 3e ec b2 9e bd
       -0.1206905 -0.14898348 0.16134594 -0.077489704
000010 19 a5 75 3d 94 b3 18 be 7d 3d 63 bd 35 16 fd 3d
       0.059971903 -0.14912254 -0.05547856 0.12357751
000020 6f e9 14 3e 2f 47 81 bd 4d 0b bf 3d 67 c7 c8 3e
       0.14542173 -0.06312405 0.09328327 0.39214632
000030 e8 35 11 3e 54 20 c2 3d a1 1b aa 3d 06 af 04 be
       0.1418072 0.09478822 0.08306051 -0.12957391
000040 f4 3a 28 3c c8 a1 b2 be 0a 3a d5 3c db 88 28 be
       0.010267962 -0.34889054 0.026028652 -0.16458456
000050 d2 1c 4f bd 5e 24 cb bd 9e cf 49 3c 98 6f 0a 3e
       -0.050564595 -0.09919046 0.012317566 0.13519132
000060 60 de 61 bd 37 18 48 3e dd dd da bc 79 e1 83 3c
       -0.055143714 0.19540487 -0.02671712 0.016098725
000070 93 e3 48 be 77 6b 79 bd bf 86 c4 bd f7 fe 35 3d
       -0.19618063 -0.060893502 -0.09596013 0.044432607
000080 86 fa 40 bb 04 34 02 3e 13 93 c5 3c dc 1c a9 bc
       -0.0029446199 0.12715155 0.024117982 -0.020643644
000090 0d 3e 97 bd 6c f3 cb bc 38 04 31 3e ff 04 03 bd
       -0.07384882 -0.024896346 0.17286766 -0.031987187
0000a0 ff bb b6 bd 28 91 c2 bd b8 1f 0b be b3 94 5b bd
       -0.08922576 -0.095003426 -0.13586318 -0.053608608
0000b0 70 11 29 be 75 45 12 be 87 8b d2 3d 62 e6 06 be
       -0.16510558 -0.14284308 0.10280519 -0.13173822
0000c0 51 f9 91 bc d6 50 1e 3e a9 6a 33 bd 19 54 0f be
       -0.017819079 0.15460524 -0.04380289 -0.13996924
0000d0 4f 27 36 bc 70 fd 43 bc a4 45 37 be fa d0 12 3c
       -0.01111777 -0.01196228 -0.1789766 0.008960957
0000e0 0f 8c 1f be 5f 5d 6a bd a5 66 68 3c 48 57 ca bd
       -0.15580772 -0.057217952 0.014184629 -0.09879929
0000f0 19 dc 82 3d 10 f8 06 3d 31 69 0b 3e 5d 13 b8 3c
       0.063896365 0.032951415 0.13614346 0.02247017
000100 1b ff 41 3c 46 58 c9 bd 84 27 b9 3c 6e 66 cd 3d
       0.011840607 -0.0983129 0.02260185 0.100293025
000110 39 a2 5b bd 38 43 46 be 04 06 ce 3d 4f 6f 85 3c
       -0.053621504 -0.1936158 0.10059741 0.016288428
000120 73 33 2c 3c 78 4d d8 bc 7e 8c a9 3e 23 ce 8b 3d
       0.010510313 -0.026404127 0.33115 0.06826427
000130 5d e3 85 3d 58 e2 0f be fb fb 8e 3d 47 34 97 3a
       0.06537507 -0.14051187 0.06981655 0.0011535966
000140 c6 83 a1 bc df 54 99 bb d6 fa e1 ba 76 d4 9e bd
       -0.019716155 -0.004679307 -0.0017240893 -0.077553675
000150 93 0f 9d 3d e6 fb 41 be 01 d6 4a bd 0a 48 3d bd
       0.07668986 -0.18943748 -0.049520496 -0.04621128
000160 f8 13 14 be fa fa 0d be 9d 03 93 3d 99 20 2b 3e
       -0.14460742 -0.13865271 0.071784236 0.16711654
000170 56 7e 67 3d 0c dd 97 bc d5 d0 96 3c cc b2 8d 3b
       0.056516968 -0.01853802 0.018410126 0.0043242928
000180 ae 9f ff bd f2 ff b6 bc e9 a7 47 be cc e0 05 bd
       -0.12481628 -0.022338841 -0.19497646 -0.032685086
000190 a5 5e 11 3e ba a4 b8 bc 74 b2 0e be 5c 67 9b bc
       0.1419626 -0.022539485 -0.13935262 -0.018970184
0001a0 28 aa 8f 3d d8 7f ab 3c 19 11 73 3d c7 de df 3c
       0.070148766 0.020934984 0.059342477 0.027327908
0001b0 c2 44 26 3d 09 dd 71 3c 79 c1 f3 bd 56 d4 9d 3d
       0.040592916 0.014762172 -0.11902136 0.077065155
0001c0 04 73 a6 bc 8d 7d c0 3d 23 b4 3e 3d e6 4f 5e bd
       -0.020318516 0.09398947 0.04655851 -0.054275416
0001d0 7f bc 98 3c bc 1f 58 3e ed a9 f3 3d e9 bb de bd
       0.01864457 0.21105856 0.11897645 -0.10875685
0001e0 5e 19 58 3d 39 8f b6 bd 16 3e 59 bc 65 b9 94 bc
       0.052758567 -0.08914036 -0.013259431 -0.01815481
0001f0 95 79 8d bd 81 7d 76 bd 87 43 17 bd 4c 9c e9 bd
       -0.069079556 -0.060178284 -0.036929633 -0.114067644
000200 d8 5f 7b 3d a7 88 26 bd 46 af 09 3e 59 50 df 3d
       0.0613707 -0.040657666 0.13445768 0.10903997
000210 c3 5f 9e 3d 67 df 25 3d 2f c1 0c 3e 5e d0 bc 3d
       0.07733109 0.040496256 0.13745569 0.092194304
000220 2f 58 0f 3c 5d 3c a7 3d 2b a7 af 3c f9 09 a2 3c
       0.008749052 0.0816581 0.021442017 0.019780146
000230 98 8b 05 3e 5a bf 0e 3e 32 9a d6 3d 7e aa fe 3d
       0.13041532 0.13940182 0.10478629 0.124348626
000240 4f 23 08 3e 7a 08 d6 3d 3b 29 00 3e c0 bf a3 bd
       0.13294719 0.104508355 0.12515728 -0.07995558
000250 e2 45 6c be ee e5 13 3e 60 9c ae bc 8e 29 4a 3d
       -0.23073533 0.1444318 -0.0213148 0.049356036
000260 96 8e eb 3c 28 29 e2 3d de d7 5e 3d 05 61 95 bd
       0.028754514 0.11043006 0.054405086 -0.07293896
000270 ec f2 8e bd e4 80 2c be 0c ce 2c be de 0b 57 3e
       -0.069799274 -0.16846043 -0.16875476 0.2100062
000280 f7 f6 12 3e 45 e4 91 3d 53 24 27 3e 4d c4 86 3e
       0.14352022 0.07123617 0.1632245 0.2632164
000290 17 18 a8 bd ca 90 e0 3d 6e 00 81 3d 0f 55 ef 3d
       -0.0820772 0.10965116 0.0629891 0.116861455
0002a0 b0 7f a6 bc 21 31 24 bd dd 97 35 3b 24 5c 86 be
       -0.020324558 -0.040085915 0.0027708926 -0.26242173
0002b0 49 8d d2 bd 19 7f 67 be 0b 43 2e 3e ba b4 99 bd
       -0.10280854 -0.22607078 0.17017762 -0.07505174
0002c0 b2 9c 07 3e 5a b6 11 3e c9 d4 3b 3d a8 ae 11 3e
       0.13243368 0.14229718 0.045857225 0.14226782
0002d0 3f fa 83 bc d5 79 22 be 8b ac 4f bd fe 40 f4 bd
       -0.016110538 -0.15866788 -0.05070166 -0.11926459
0002e0 7a af 07 be 90 42 32 be 3a 9c 5d 3d 3e 79 95 bd
       -0.13250533 -0.17408204 0.054104067 -0.07298516
0002f0 de d5 38 3d b0 43 94 3d d0 cb 8d 3d 43 14 45 3e
       0.045125835 0.07239473 0.0692364 0.1924601
000300 9b 64 f3 bd c4 aa ab 3d 92 6b 23 3e f9 31 aa bc
       -0.11884423 0.0838218 0.15959004 -0.020775782
000310 c4 58 48 3d 37 49 15 3e 14 91 a6 bd bb e3 02 3e
       0.04891278 0.1457871 -0.0813314 0.12782185
000320 a2 f1 30 3e b7 a0 14 be cd 37 36 bd 3f 7d d0 3b
       0.17279676 -0.14514433 -0.04448681 0.0063625867
000330 15 ab 3e 3d 03 2d dc 3d 03 c0 1d be d0 b7 54 be
       0.046549875 0.10750773 -0.15405278 -0.20773244
000340 4a 42 48 3e 3c b9 71 bd 5e d4 10 3e 43 61 ba bd
       0.19556537 -0.059014544 0.14143512 -0.091005825
000350 7e 89 a7 3c 74 1f 18 3d c8 40 8d 3d 96 f6 80 3d
       0.020451304 0.03713937 0.06897122 0.062970325
000360 14 39 8d 3d df c8 a1 bd 04 c4 eb 3d 2a 25 f4 bd
       0.068956524 -0.07899641 0.115119964 -0.11921151
000370 d9 74 9a 3d 83 32 1f be ac ac 55 3c a6 e3 a5 3e
       0.07541818 -0.15546612 0.013041656 0.32400244
000380 fb 49 4b bd 2e cd 6a 3e b0 c0 40 3e ac e7 38 3e
       -0.0496311 0.22929832 0.18823504 0.18057126
000390 a6 a0 78 be e4 fa 11 3e ab d0 d7 3d 20 62 4f 3d
       -0.24280033 0.14255863 0.10537847 0.05063069
0003a0 44 af df bd eb fa 2d bd 52 b6 2c be bc cc f6 bd
       -0.10922101 -0.042475622 -0.16866425 -0.12050769
0003b0 ec 26 f2 bd dc c3 ca bd 08 15 0a 3e cd 4d 92 bd
       -0.1182383 -0.099006385 0.13484585 -0.071437456
0003c0 f1 65 90 3d e9 4b 13 3e 3e 29 04 bd a0 f5 32 3d
       0.07050694 0.14384426 -0.032265894 0.043691278
0003d0 06 5a 9d bd cf 8c 15 be 56 40 24 be 0e 3c 5e bd
       -0.07683186 -0.14604495 -0.16040167 -0.05425649
0003e0 34 c9 b8 bd 39 f5 39 3d 7f 33 7a 3d a5 41 44 bb
       -0.090227515 0.04539988 0.061084267 -0.0029946354
0003f0 79 12 65 3d 90 34 09 3e 96 64 50 3e 12 e1 90 3d
       0.05592582 0.13398957 0.2035087 0.07074179

sequential_1/lstm_1/while/lstm_cell_1/add_1/ReadVariableOp f4 [256]
000000 88 6e dd 3b de af db 3d ae 06 3c bc ba c7 24 bd
       0.006757561 0.107269034 -0.011476202 -0.040229537
000010 fe fb 9a 3c ac 27 2f 3d cf a2 51 3e ef 63 2c bd
       0.018918987 0.042762443 0.20472263 -0.04208749
000020 d5 a7 5e 3d ea ce 5f bd b9 a4 4c 3c 39 24 ab 3d
       0.054359276 -0.054640688 0.012490445 0.08356518
000030 e2 11 fb bc d4 42 3c bc ec 82 48 bd 39 fe 9e 3c
       -0.030648176 -0.011490542 -0.04895298 0.019408332
000040 99 18 10 bd 39 37 47 3e 2b 36 13 bd ed 7c a3 bd
       -0.03517971 0.1945466 -0.03594033 -0.07982812
000050 c5 d3 68 3d 9b e7 a1 3c b4 1b 00 3a d3 15 3a 3c
       0.056842584 0.019763758 0.00048869406 0.011357742
000060 e1 d3 58 bd f6 5e 35 3d 8e 21 c3 bd a3 a9 50 3d
       -0.05293644 0.044280015 -0.095278844 0.05094303
000070 fc 50 82 3c f9 e3 1e 3d e0 16 5f 3e 0b c4 d3 3c
       0.015907757 0.03879163 0.2178607 0.025850317
000080 43 62 bf 3c 9c 3a ae bc 06 0e 84 3d 1f 10 eb 3a
       0.023362285 -0.021268182 0.06447987 0.0017933882
000090 bf 2f 54 3d ea 66 0d 3d 51 c1 ca 3d 76 0f 36 3d
       0.051803347 0.034521975 0.099001534 0.04444834
0000a0 c8 fc a0 3b ad 16 07 bc d8 92 ad 3d a5 aa 3d 3d
       0.0049129464 -0.008245152 0.08475274 0.046305317
0000b0 37 b7 1a bd f4 1d 20 3d 7d 3b 59 3d 65 7b ae bb
       -0.037772384 0.039091066 0.053035248 -0.0053247684
0000c0 da fa 5d 3d 92 e3 54 bd fa de cf bc a8 d1 e3 3d
       0.05419431 -0.05197484 -0.025374878 0.11123973
0000d0 06 1d d4 3d 6d 6d 23 bd 00 08 64 35 e1 1a 34 3d
       0.10357098 -0.03989928 8.494826e-07 0.043970946
0000e0 ee 2f a9 3d 03 14 33 3d b3 62 39 bd 49 50 8a bd
       0.08261095 0.043720257 -0.045260143 -0.067535944
0000f0 07 6a 38 bd b3 e9 90 3d a2 0a b0 3c a3 f4 c9 3d
       -0.04502299 0.070758246 0.021489445 0.09861114
000100 15 6b 76 3f 9a 00 85 3f 1b 92 7c 3f 19 4a 7a 3f
       0.96257144 1.0390809 0.9866044 0.97769314
000110 4c 0c 7e 3f fc 56 72 3f b1 ff 81 3f 5c 8c 78 3f
       0.99237514 0.9466398 1.0156156 0.9708917
000120 03 80 83 3f ff 86 7b 3f 3b 1c 76 3f 4e 4d 78 3f
       1.0273441 0.9825286 0.96136826 0.9699296
000130 59 a3 77 3f 83 82 7d 3f 2f 81 74 3f 89 15 84 3f
       0.96733624 0.9902727 0.9550962 1.0319072
000140 6e 14 65 3f 71 aa 83 3f 67 ad 7c 3f 59 97 6f 3f
       0.894843 1.028639 0.9870209 0.93590313
000150 86 9d 76 3f da 7a 73 3f 06 d8 7e 3f 80 dc 82 3f
       0.9633411 0.9510933 0.99548376 1.0223541
000160 ff 34 72 3f f2 07 84 3f 02 f6 6b 3f 64 1d 80 3f
       0.94612116 1.0314925 0.92172253 1.0008969
000170 a8 12 78 3f 8c 87 78 3f ff 25 7b 3f 97 1a 76 3f
       0.9690347 0.9708183 0.9810485 0.9613432
000180 31 7b 73 3f 99 50 82 3f a5 38 7a 3f d3 fd 6a 3f
       0.9510985 1.0180846 0.9774268 0.91793555
000190 80 91 7e 3f 5f 0e 79 3f e6 87 7f 3f 39 ec 76 3f
       0.99440765 0.97287554 0.9981674 0.964542
0001a0 af 6f 7c 3f 39 2e 78 3f 59 54 7b 3f 9b c0 7a 3f
       0.98607916 0.9694553 0.9817558 0.9795014
0001b0 74 09 7d 3f e6 fd 7b 3f 00 63 81 3f f0 0f 82 3f
       0.9884255 0.98434293 1.0108337 1.0161114
0001c0 29 75 71 3f 06 5e 7e 3f df da 77 3f 71 bd 7a 3f
       0.943194 0.9936222 0.96818346 0.97945315
0001d0 d1 98 7b 3f 1a 03 6e 3f f4 13 86 3f 8b 4b 87 3f
       0.98280054 0.9297348 1.0474839 1.0569929
0001e0 29 44 70 3f 46 d7 71 3f 54 bc 7c 3f 29 2b 71 3f
       0.93854004 0.94469106 0.98724866 0.9420648
0001f0 85 83 72 3f 0f 5c 80 3f e1 3f 78 3f 01 81 78 3f
       0.9473193 1.0028094 0.9697247 0.97071844
000200 21 ff 93 3d 92 05 5b bd 3c 74 da 3c 84 1d 80 bd
       0.07226396 -0.05347211 0.026666753 -0.0625563
000210 fa 7c ba 3d f2 a3 87 3d ab fe b8 3d d1 40 c7 3c
       0.09105869 0.06623067 0.09032949 0.024322899
000220 2e 70 a6 3d 0e 1a 0e 3d f5 f2 8e bd eb 44 ad bd
       0.08126865 0.034692816 -0.06979934 -0.08460411
000230 f5 70 89 3d 6e 38 66 3d 2b e7 91 3d 96 6e 75 3d
       0.06710998 0.05620616 0.0712417 0.059919916
000240 49 1d 55 3d 5d 5e bb 3d a0 40 4c bd 3e 21 4a 3c
       0.05202988 0.09148858 -0.04986632 0.012337027
000250 ea 6c a0 bd 03 9f 88 3d 8f 0c 5d bd 0d c6 15 bc
       -0.07833274 0.06670954 -0.053967055 -0.009141457
000260 8b 51 f2 bc cc 35 91 3d 90 bd 44 bb e1 41 9d bd
       -0.029579898 0.07090339 -0.0030020215 -0.07678581
000270 3b 75 97 bd 1f 78 a2 bd 93 8c de bd 6e ea ab 3d
       -0.07395407 -0.079330675 -0.10866656 0.08394323
000280 3c d8 a6 3d ec 6e 4b bd 76 d6 7f 3c 48 6d e3 3c
       0.08146712 -0.04966633 0.015615096 0.02776207
000290 8c 61 96 bd 4b e3 af 3d 5b 08 a3 3d 94 1b 95 3d
       -0.07342824 0.085882746 0.07960578 0.07280651
0002a0 71 4b 94 bd 8d f7 96 bd 27 7e a8 bd be 92 d1 bd
       -0.07240952 -0.07371435 -0.08227187 -0.10233067
0002b0 e9 34 1f 3d da 3c 93 bd f7 19 b1 3d 51 d4 29 3d
       0.03886882 -0.07189341 0.086475305 0.041462246
0002c0 a0 d7 a5 3d 35 aa 88 bc b3 30 12 3d 2f 02 b1 3d
       0.08097768 -0.016682724 0.035690974 0.086429946
0002d0 ba 8e b1 bd e7 c5 60 bd f5 ef 04 bd 43 b3 8c 3d
       -0.08669801 -0.054876234 -0.032455403 0.06870129
0002e0 ac 74 91 bd 7e b6 cc bd 9c 03 26 bd 20 15 54 3c
       -0.071023315 -0.09995745 -0.040530786 0.01294449
0002f0 07 57 3a 3d f7 33 b9 3d c4 8a 9c 3d d1 ac e3 3d
       0.045493152 0.09043115 0.07643655 0.111169465
000300 63 8e 7f 3c 70 96 e3 3d 19 c1 82 bc 30 ce 30 bd
       0.0155979125 0.11112678 -0.015961217 -0.043165386
000310 8d 41 29 3c 0c ce 44 3d 79 4a 4e 3e 3f 0c 3f bd
       0.01033057 0.048048064 0.20145597 -0.04664254
000320 f7 91 04 3d b5 29 5f bd 77 ae 89 3c 4a 3e e5 3d
       0.032365765 -0.054483134 0.016806824 0.11193521
000330 8f c1 17 bd 90 8a 97 bc 1a 73 6a bd 8e 54 b6 3c
       -0.037049826 -0.018498689 -0.057238676 0.022257116
000340 f7 c1 14 bd 6b 7c 57 3e a0 01 2c bd c3 28 9e bd
       -0.03631779 0.21043555 -0.041993737 -0.077226184
000350 b5 a1 58 3d 27 57 0c 3d 4a b4 e5 3a c6 25 b4 bc
       0.05288859 0.034262802 0.0017525044 -0.021990668
000360 76 c2 5a bd 81 dd 54 3d 95 aa c0 bd 4b 5d 38 3d
       -0.05340811 0.051969055 -0.09407536 0.045010846
000370 d8 bb 85 3c 07 01 16 3d 56 58 5d 3e 07 d8 8c 3c
       0.016324922 0.036622074 0.21615729 0.017192854
000380 76 4d 83 3c 99 b1 89 bc 89 cf 83 3d 01 3c e4 3a
       0.016028147 -0.016808318 0.064360686 0.0017412902
000390 ce 16 25 3d 28 d6 17 3d 2f 1d b7 3d df 27 38 3d
       0.04030495 0.03706947 0.08941113 0.0449599
0003a0 a5 de ab bb 5d eb 91 bc 57 12 ae 3d b6 6f 42 3d
       -0.005245047 -0.017812425 0.08499592 0.047469817
0003b0 d2 e2 1e bd 89 55 1e 3d 5c 5e 64 3d ec 92 38 bc
       -0.03879053 0.03865579 0.05575405 -0.011265498
0003c0 be 2a 67 3d 59 54 62 bd 7b c5 e3 bc 82 63 f0 3d
       0.056437247 -0.05525622 -0.027804127 0.117377296
0003d0 e6 e1 d7 3d 65 9d 18 bd c4 94 d2 bc 75 ab 21 3d
       0.105411336 -0.037259478 -0.025705703 0.039470155
0003e0 06 aa b0 3d 88 b1 1c 3d 14 29 53 bd f9 6e 8c bd
       0.086261794 0.038255244 -0.051552847 -0.06857104
0003f0 50 ca 4e bd 5d 81 65 3d 6c 9e 85 3c d7 e9 ca 3d
       -0.05048591 0.056031574 0.016310893 0.09907883
